models/final_ecgnet_model.pth (torch, 683978 bytes, 22 tensors)

conv1.weight f4 [32, 12, 15]
000000 75 59 2f 3e e8 ac dc 3d 03 8a 24 be ec a9 df be
       0.17123969 0.10775167 -0.16068272 -0.43684328
000010 85 38 a1 3c 3d dd 17 3e 26 6d 25 3d 6a a0 83 bd
       0.01968027 0.1483049 0.040387295 -0.06427081
000020 13 77 21 bd 30 ae c1 bd f5 d8 0a 3d 82 95 5a be
       -0.0394202 -0.09457052 0.033898313 -0.21346095
000030 bb 28 be bd 1c 8f 1c 3e 6b 76 da bc f6 28 ff 3d
       -0.092851125 0.15288967 -0.026667794 0.124589846
000040 8d d0 86 3d cd 8d f5 3c 25 ce 13 be b7 91 8a be
       0.06582747 0.029974842 -0.14434107 -0.27064297
000050 e9 7d 44 bd 7f 83 8b bd b1 0d e7 bd c2 cf 0f 3d
       -0.04797164 -0.0681219 -0.11281908 0.035110243
000060 d4 c2 f8 3b ec 52 d5 3d c2 10 a5 3d b8 0a bc 3d
       0.0075915847 0.10416207 0.08059837 0.09181732
000070 d4 61 3c 3e dd 51 a0 bd 9b 3f fd bb ea 54 70 3c
       0.18396693 -0.07828114 -0.0077285296 0.014668683
000080 d2 b8 51 3e 0a 5a 9c 3e 46 76 15 be cd ba 20 be
       0.2048066 0.30537444 -0.14595899 -0.15696259
000090 53 6c 98 bc 2e 7b 8a bc 5a b0 18 3d 09 68 66 bd
       -0.01860634 -0.01690444 0.037277557 -0.05625156
0000a0 3f bf b5 bd 2f 7d a6 3d e1 bb 6c 3d a8 27 b0 bd
       -0.08874368 0.081293456 0.057796363 -0.08601314
0000b0 1d 86 f6 bd 8f 63 04 be ad 22 12 bd 22 79 62 3e
       -0.12037299 -0.12928604 -0.0356776 0.22116521
0000c0 92 fe b7 3e fe aa fb 3d e9 fc 31 be 71 52 85 bc
       0.3593641 0.122884735 -0.17381634 -0.016274663
0000d0 e3 b7 7a 3d f5 68 14 bc fe c1 c9 3d 62 81 ba 3c
       0.061210524 -0.009058227 0.09851454 0.022766773
0000e0 8b 6f d6 3d 96 1c 27 3d e9 32 35 be 0b 62 e6 3c
       0.10470494 0.040798746 -0.17695202 0.028122922
0000f0 9b 0e 21 3e 11 1c ea 3d 42 77 18 be 94 24 de be
       0.15728228 0.114311345 -0.14889243 -0.43387282
000100 ba 28 04 3e 8b b5 1b 3e dc 03 4e 3d 69 3c d4 ba
       0.12906161 0.15205972 0.05029665 -0.001619232
000110 a7 34 0b bd 33 3e 30 3b dd af 3e 3d 3d 0a e8 bd
       -0.03398576 0.0026892542 0.046554435 -0.11330078
000120 7d 98 0a be c4 79 f3 3c 62 e0 cb 3d 14 e7 77 3d
       -0.13534732 0.029721148 0.09954907 0.060523108
000130 92 98 cc 3c fc e8 85 3c dc 14 2c 3d e2 25 85 be
       0.024975095 0.016346447 0.04201208 -0.26005465
000140 5d 64 87 bd 9d b3 98 3d 4e a1 58 bd dc 40 17 3d
       -0.0661094 0.074561335 -0.052888207 0.03692709
000150 5e 73 4e bc 7a 08 35 bd 22 c5 53 3d 1a 38 2e 3e
       -0.012600748 -0.044197537 0.051701672 0.17013589
000160 f7 54 14 3b a7 dd bc bd c3 f5 0e be 1a ed a2 3c
       0.002263365 -0.09221964 -0.13960938 0.01988845
000170 b7 dc 93 3d 46 d6 05 3e cd a1 52 3e d9 b5 1b 3b
       0.072198324 0.1307002 0.20569535 0.0023759513
000180 c7 2c 1c be 63 8c 66 be 51 8b 52 be 06 c2 4b bd
       -0.15251456 -0.22514491 -0.20560957 -0.049745582
000190 74 be a1 3d 8b 71 44 3e 35 e6 2a 3e 04 2e 13 3d
       0.07897654 0.19183938 0.1668938 0.035932556
0001a0 56 62 06 be 34 c0 93 3d 84 79 1d be 85 f4 35 bd
       -0.1312345 0.07214394 -0.15378386 -0.044422645
0001b0 62 bf 1c 3d 47 15 2a 3e f0 30 57 3e 3f f8 64 bd
       0.038268454 0.16609679 0.21014762 -0.05590081
0001c0 20 18 92 be 51 20 80 be a2 23 14 bd e1 ca f3 3d
       -0.2853403 -0.25024655 -0.036166795 0.119039305
0001d0 ef e3 dc 3d 57 ae 3b 3d 66 b3 71 3d 3a c3 c2 3c
       0.107856624 0.04582056 0.05900898 0.023774732
0001e0 58 b0 f6 3c 28 43 82 bd 77 fe 00 be 1f 58 6f 3e
       0.030113384 -0.06360465 -0.1259707 0.2337346
0001f0 cd d4 5c 3e ce 3b 5a 3e d2 d1 14 bd 74 12 72 be
       0.21565552 0.21311876 -0.036332913 -0.23639852
000200 18 fb 3a bd a4 d4 86 3d 2e fa 0e 3e 79 35 15 3d
       -0.045649618 0.06583527 0.13962623 0.03642795
000210 7f 44 12 bd 00 4b 31 be bd 28 37 be 5b 67 5d 3e
       -0.035709854 -0.17313766 -0.17886634 0.21621458
000220 3b e6 00 3d d2 09 08 be 30 f5 56 bb bd 5d 16 3e
       0.031469565 -0.13284996 -0.0032799952 0.14684196
000230 e5 e0 08 3d 09 60 1a 3d 3d 10 61 be 35 75 3c 3d
       0.0334176 0.037689243 -0.2197885 0.046010215
000240 f9 4a 2b 3e 7f 51 c0 bc 09 d8 14 be 2f cc 5f 3d
       0.16727819 -0.02347636 -0.14535536 0.054638084
000250 2f 92 c4 3c 3b ec 7c be 3e 1f bd 3e e0 10 70 3e
       0.023995487 -0.2469949 0.36937898 0.23443937
000260 4e 80 51 be 12 00 86 be 3d 79 cf bd b2 67 f0 3c
       -0.204591 -0.2617193 -0.10130546 0.02934632
000270 d4 dd 45 3d 0a 29 b4 bd 9c 9a 25 3d 65 42 14 3c
       0.048307255 -0.0879689 0.04043065 0.009049033
000280 ef a0 34 3d dd d0 b2 bd 6a 6e 26 3e 99 58 81 3d
       0.04409879 -0.08731244 0.16253057 0.06315727
000290 31 66 11 be a2 b8 64 3d 8a 67 a2 3b 09 d8 24 be
       -0.14199139 0.055840142 0.0049561905 -0.16098036
0002a0 2f fc 85 be 7a 7f e3 bc 71 92 0b 3e 6b d9 12 3e
       -0.26168963 -0.027770746 0.13630082 0.14340751
0002b0 0d 96 49 3c 7c 80 87 3d 93 3a c2 3c 85 72 91 bd
       0.012303841 0.06616303 0.023709571 -0.07101921
0002c0 1c be ba bd 4f 87 9a 3d 1a 28 4d 3e 13 2c cc bc
       -0.09118292 0.07545339 0.20034829 -0.02492336
0002d0 5d 0d 08 3e 77 ca d1 3c a9 a5 59 be f2 4a 20 be
       0.13286348 0.025609238 -0.212546 -0.1565359
0002e0 e8 be 00 3d 1f f6 73 3d 8a 45 3c 3c 56 8b f7 bd
       0.031432062 0.05956089 0.011491189 -0.12087123
0002f0 1b ea 10 3e 4f 02 95 3d 82 46 72 bd 15 e7 25 bb
       0.14151804 0.07275831 -0.059149273 -0.0025314738
000300 cc 78 9c 3b 4b 8b d8 bd 4f 1f 10 3d d4 f8 7b 3d
       0.0047751423 -0.10573443 0.03518611 0.061516598
000310 70 49 8c 3d 44 c8 f5 bd b9 93 40 3d d9 80 d7 3d
       0.068499446 -0.12001088 0.04701588 0.105226226
000320 fe 21 e7 bc bd 36 a9 bc 5a 82 95 bc a4 00 f4 3d
       -0.02821445 -0.020655984 -0.018250633 0.11914185
000330 70 87 d9 bd d1 54 84 bd 01 e9 0a 3d 26 f8 a6 bc
       -0.10621536 -0.0646149 0.033913616 -0.020381998
000340 d1 e5 83 bd 73 e8 96 bc 30 38 98 3c 38 5f 1c bd
       -0.064403184 -0.018421387 0.01858148 -0.038176745
000350 71 7f 99 3c 3c d1 c0 3d fc 08 c0 3d 9a e9 14 bd
       0.018737527 0.09414908 0.09376714 -0.036355592
000360 48 78 29 bd 99 6e c0 3d 33 fa 23 3d c9 22 ed bd
       -0.041374475 0.09396095 0.04003353 -0.115789
000370 ef 3d 7d 3d 16 a3 28 3d b3 ac dd 3c 06 79 8b bd
       0.061826643 0.041171156 0.027059888 -0.06810193
000380 58 0f ec bb 67 fe 5c be c9 f0 48 bb 4d b5 79 3e
       -0.0072039776 -0.21581422 -0.0030661097 0.24385567
000390 c4 d6 00 3e 45 00 4a bd c5 3e f0 3c 32 04 4b 3d
       0.12581927 -0.049316663 0.029326806 0.049564548
0003a0 c8 60 1a 3c 15 75 99 bd 58 03 46 3c 1d 26 de 3d
       0.0094224885 -0.07493035 0.012085758 0.10847113
0003b0 c3 be a3 3c e5 43 85 3d c1 03 a0 3d 23 52 10 3d
       0.019988423 0.065070905 0.07813216 0.03523458
0003c0 93 51 c5 3d 7a 52 11 bc 82 b9 db 3a 0f b1 b1 bd
       0.096347 -0.008869762 0.001676366 -0.08676349
0003d0 66 42 8c bd 0d 41 95 3d 62 3d d4 bc 01 ca 71 bd
       -0.06848602 0.07287798 -0.025908176 -0.059030537
0003e0 a3 69 d6 3d e4 56 fa 3d 3b c5 62 b7 ea b0 64 bd
       0.10469367 0.12223604 -1.3516571e-05 -0.05583278
0003f0 b9 44 94 bd c8 49 60 3c ac eb 08 3d b1 7c ec 3d
       -0.0723967 0.013689466 0.03342788 0.115472205

conv1.bias f4 [32]
000000 f4 fe 6e bd 7d 29 91 bd 51 0a 3c bb ef 9b 86 3c
       -0.05834861 -0.070879914 -0.0028692672 0.016431777
000010 6e eb f3 3c f1 3f 34 be 75 22 1e 3e 27 a0 26 3e
       0.029775348 -0.17602517 0.15442832 0.16272031
000020 c9 f6 92 3d eb 0e 0f bc 59 a4 4a be 58 b4 d4 bd
       0.07175977 -0.008731584 -0.19789256 -0.1038596
000030 1c 5e fe bd 86 13 15 3e 8b ab e3 bd 98 76 c6 3d
       -0.12420294 0.14558229 -0.111167036 0.09690589
000040 2a 04 ff 3d e8 19 25 3e b5 23 32 3d 88 a9 34 bd
       0.12451966 0.16123164 0.043491084 -0.04410699
000050 47 7b 38 3e 8a 25 51 3d e0 df ec 3d 10 42 64 3e
       0.18015777 0.05106119 0.11566138 0.22290826
000060 87 eb 2d be a3 95 18 be 2d 20 71 3c 67 10 5d be
       -0.16984378 -0.14900832 0.014717144 -0.21588288
000070 ca 0a 26 bd 44 6a 07 3d 0b d7 ee bd 10 24 59 3d
       -0.040537633 0.033060327 -0.1166211 0.053012908

bn1.weight f4 [32]
000000 0c 20 8e 3f e5 7f 81 3f da 4d 7e 3f 0b 21 93 3f
       1.110353 1.0117155 0.9933754 1.1494459
000010 62 b8 87 3f 61 5d 63 3f 20 d3 85 3f 19 cd 63 3f
       1.0603144 0.8881436 1.0455055 0.8898483
000020 b7 01 56 3f 8b e0 70 3f c8 1c 81 3f 03 40 7d 3f
       0.83596367 0.94092625 1.0086908 0.989258
000030 b7 f6 4a 3f d5 ff 92 3f ab 0e 8a 3f 8c d3 81 3f
       0.79282707 1.1484324 1.0785726 1.0142684
000040 ec 2a 86 3f 56 69 5d 3f ac b5 7e 3f 07 85 a2 3f
       1.0481849 0.86488855 0.9949596 1.2696847
000050 2a 48 58 3f 30 36 84 3f c0 00 8c 3f 3c 0f 85 3f
       0.84485114 1.0329037 1.0937729 1.0395274
000060 2f 07 5c 3f e0 5c 8d 3f cd 8b 64 3f df 72 81 3f
       0.8594846 1.1043968 0.8927582 1.0113181
000070 ef a2 5d 3f 39 15 5a 3f 91 25 60 3f bc 13 a2 3f
       0.8657674 0.85188633 0.8755732 1.2662272

bn1.bias f4 [32]
000000 24 46 0c bf 1f 46 c5 3d 4b 4d 1a be e6 fe d9 3c
       -0.54794526 0.09632515 -0.15068547 0.026610803
000010 96 2c 48 be 68 66 fa bb 6c e9 8f 3c 60 2c 19 bc
       -0.19548258 -0.0076416023 0.017567359 -0.009348959
000020 0f 84 0c be 62 c1 7f 3d 63 47 23 be 30 80 88 3e
       -0.13722251 0.062440284 -0.159452 0.266603
000030 29 2c a1 3d b2 0c c4 bd 6e 3b 91 3d 84 e1 bd bd
       0.07869751 -0.09572734 0.070914134 -0.09271529
000040 5b 6f 95 3e 3a 9e 96 be 4b 96 b9 3d 88 f1 ac be
       0.2918652 -0.29417592 0.09061869 -0.33778024
000050 d8 c9 83 3d da 1c 99 bd 27 ea e2 bd e2 17 58 3e
       0.06434983 -0.07476206 -0.11079817 0.2110286
000060 64 d4 2a bd 2d aa 24 bc 6d 93 89 bd d7 1f dc 3d
       -0.041706458 -0.010050339 -0.06717572 0.107482605
000070 f9 90 a4 3c cb 00 07 be 3e da 9a bd 5d 8b 49 bd
       0.02008866 -0.13183896 -0.07561158 -0.049205173

bn1.running_mean f4 [32]
000000 13 4d 6d bd 78 2f 8f bd 6e 81 10 bc b8 25 87 3c
       -0.05793483 -0.06991476 -0.008819921 0.016497478
000010 50 5a 05 3d f8 57 2c be 71 05 1b 3e 64 67 22 3e
       0.03255683 -0.16830432 0.15138794 0.15859753
000020 b7 01 93 3d 78 9a 52 ba 25 fe 4c be 8a d9 d6 bd
       0.071780615 -0.0008033882 -0.20018823 -0.10490711
000030 d3 ca ff bd 66 fb 16 3e ce d5 e5 bd bf 78 ba 3d
       -0.124898575 0.14744338 -0.11222421 0.09105062
000040 66 f2 02 3e e0 b6 26 3e 11 76 28 3d ce fb 20 bd
       0.1278778 0.16280699 0.041128222 -0.03930264
000050 10 24 42 3e 48 de 49 3d 20 e4 00 3e 46 85 68 3e
       0.18959069 0.04928425 0.12587023 0.2270709
000060 9a a0 24 be 7d 25 17 be 0b 2d 26 3c 24 b1 62 be
       -0.1607689 -0.14760394 0.010142575 -0.22137886
000070 53 cc 08 bd 9f 37 08 3d db 54 dc bd 1a 78 5b 3d
       -0.033397984 0.03325617 -0.107583724 0.053581335

bn1.running_var f4 [32]
000000 e1 65 c7 3e 78 63 27 3f 05 a2 38 3f 69 39 cd 3e
       0.38944915 0.6538615 0.7212222 0.40082863
000010 26 3c 7a 3e 5a 09 3b 3f 01 de 2e 3f 71 22 fe 3e
       0.24437007 0.73061144 0.683075 0.49635652
000020 64 04 24 3f 98 33 ce 3e 68 fc 97 3e 09 8e 6a 3e
       0.640692 0.40273738 0.29684758 0.22905745
000030 60 2f 0a 3f 54 c5 de 3e 8c 95 56 3e 26 27 0d 3f
       0.5397854 0.43509924 0.20955485 0.5513786
000040 57 26 b4 3e 5a 0f fe 3e de 8d 16 3f 9a c4 85 3e
       0.351855 0.49621087 0.5881022 0.26126558
000050 78 16 b7 3e 71 57 cc 3e 6a 58 eb 3e c8 eb 09 3f
       0.3575933 0.39910462 0.45965892 0.538754
000060 61 e5 dc 3e 5b 06 ae 3e e8 8b c5 3e 0b b9 1c 3f
       0.43143752 0.33989224 0.38583302 0.61219853
000070 a7 a7 fe 3e 1a 5d 29 3f 67 04 3d 3f f9 8d 9f 3e
       0.49737284 0.66157687 0.7383484 0.31163004

conv2.weight f4 [64, 32, 15]
000000 d9 3d 82 be 9a 06 3a be a2 47 db 3d de 39 59 be
       -0.2543781 -0.18166581 0.10707022 -0.21213481
000010 25 52 94 bd 90 d8 bf bb 8b 39 45 3c 00 f5 ac 3d
       -0.0724223 -0.0058546737 0.012037645 0.084451675
000020 b4 ed 98 bc 65 39 b3 bc 82 cc 40 bd 9c 10 0c be
       -0.018668033 -0.021877954 -0.047070034 -0.13678211
000030 e5 49 c2 be 8f 87 5c 3d df 9b 0e 3e e3 96 33 be
       -0.37947002 0.053840216 0.13926648 -0.17538027
000040 d4 ae 7a 3c d6 70 fe 3d 29 2b ce bc 51 d2 1b be
       0.015300471 0.124238655 -0.025167065 -0.15216948
000050 5a 27 f5 3c f4 33 e0 3c e8 89 b6 3c 05 d7 02 be
       0.02992599 0.027368523 0.022282556 -0.12777336
000060 04 bb 9c bc 56 9f d9 3d 21 20 26 3d 6a e2 fd 3d
       -0.019132145 0.10626094 0.040557984 0.12396701
000070 77 a7 b5 3d 1c ec 69 3e c4 28 b2 3d ae 1d d1 3d
       0.08869832 0.22843975 0.08699182 0.10210739
000080 60 c8 9a bd 25 cf 8e bc 59 dd f9 be c4 14 72 be
       -0.0755775 -0.017432759 -0.48801687 -0.23640734
000090 09 22 3c 3e a0 b4 25 3e 46 d5 12 bc f8 0a 04 be
       0.18372358 0.16182184 -0.008961981 -0.12894809
0000a0 cc a2 eb bd 5b fd 1c be 4e b0 90 be 44 57 a9 be
       -0.115056604 -0.15331022 -0.2825951 -0.3307439
0000b0 de 23 14 3d 09 20 97 bd 2a d8 0f 3e 51 f4 96 be
       0.036167018 -0.07379157 0.14047304 -0.29483274
0000c0 75 aa c0 bc 5f 25 aa bd 32 75 90 3c 15 06 fd 3c
       -0.02351878 -0.08307909 0.017634008 0.03088669
0000d0 7d 7c 39 be 10 4c 29 3e a8 bf 04 3e cd bb e0 3d
       -0.18113895 0.16532922 0.12963736 0.1097332
0000e0 ef cf 1c 3c 28 b4 f8 bb 10 5d 12 3e 22 7e cc 39
       0.00957106 -0.0075898357 0.14293313 0.00039003888
0000f0 18 b3 1e 3e 99 05 b7 3c 73 a2 fe 3c d6 89 12 3e
       0.15498006 0.022341536 0.031083321 0.14310393
000100 5b 64 0f bb 01 aa bd 3d b6 78 1c be 39 aa 1a be
       -0.0021879885 0.09260941 -0.15280423 -0.15103997
000110 53 4d 98 bd 4f 3d 0d bd c3 53 db bc 79 69 93 be
       -0.074366234 -0.034482297 -0.02677334 -0.28791407
000120 a9 9a 1a bd 67 bc 16 3e 83 4f bf 3d 37 da 2f 3d
       -0.03774515 0.14720307 0.093413375 0.042932715
000130 0e b2 b3 3c ec 8b 35 bd 12 56 cd 3c 20 c3 17 be
       0.021935489 -0.044322893 0.025065456 -0.14820528
000140 f3 95 62 3d 05 6f bf 3d 2a 9e 84 bd dd dc 7a be
       0.055318784 0.09347347 -0.0647548 -0.24498315
000150 32 f9 ed 3c a5 7a 59 3e b3 4e 50 3e 88 cb 35 3e
       0.02904949 0.21238191 0.20342521 0.17753422
000160 45 2b c1 3c e9 82 a6 3e ce e0 3c be 33 87 44 bd
       0.023580203 0.32521752 -0.18445131 -0.0479805
000170 91 82 92 be 3a da 9d bd ed 89 4e 3d 2d a3 a7 3d
       -0.2861524 -0.07707639 0.050424505 0.0818542
000180 38 fc b2 3d 41 6f 96 bd 77 7a 20 bc 13 02 04 be
       0.08739513 -0.07345439 -0.009794823 -0.12891416
000190 3e b7 b7 3c 00 07 15 3e f2 a4 e2 3d 1c ba e0 3c
       0.022426244 0.14553452 0.11066617 0.027432494
0001a0 97 30 28 3d 5a 58 4e 3e 06 dd 87 bc 17 a6 7a 3e
       0.041061964 0.20150891 -0.016584884 0.24477421
0001b0 aa 23 36 3e ae e3 92 3d 08 21 3d bc 31 24 11 bd
       0.17787042 0.07172333 -0.01154352 -0.035434905
0001c0 59 87 f2 bc 84 6f a3 bd 1b 2c e2 bd 89 57 28 3d
       -0.029605554 -0.07980254 -0.11043569 0.041099105
0001d0 d0 45 bd bc c4 93 94 3e 94 ae 3e 3d df 5e 98 3d
       -0.023104578 0.29018986 0.04655321 0.0743997
0001e0 04 7f fa be 3d 9c 12 be dd bd 35 bd 79 ef 65 3d
       -0.4892503 -0.14317413 -0.04437052 0.056136582
0001f0 55 cc b0 bd 1f 93 44 3c 75 a6 d5 bb de 3e cf 3d
       -0.08632723 0.011997967 -0.0065200874 0.10119413
000200 ea c1 32 3e e0 03 36 3e ce 01 75 bc 1b ba ab 3d
       0.17456785 0.17774916 -0.014954044 0.08385106
000210 0e 23 d9 bd 8f ac da bd 07 27 06 be 30 d4 24 3e
       -0.10602389 -0.10677444 -0.13100825 0.16096568
000220 d7 18 ae 3d 9a 59 47 bd 82 05 6b bd 69 04 08 3d
       0.085008316 -0.048669435 -0.0573783 0.03320733
000230 82 72 cc 3d 81 9b a4 3d b8 04 65 be 9b ab b5 be
       0.09982778 0.080374725 -0.22365081 -0.35482487
000240 d6 4e b6 bb 1c 3e ef 3d 4a 2c 10 bd 31 c4 4a be
       -0.005563597 0.11681768 -0.035198487 -0.19801404
000250 55 b4 6e 3e 7a 3c 34 3c fa f3 52 bd e9 73 16 be
       0.23310979 0.011000747 -0.051502205 -0.14692654
000260 0a 6f 4b bd 6e 62 f0 bd 26 87 23 be da 50 20 be
       -0.049666442 -0.11737524 -0.15969524 -0.15655842
000270 8c 62 93 3d 79 81 47 be 3e ed 9d bd 24 b8 8e bc
       0.07196531 -0.19482984 -0.07711266 -0.01742179
000280 2e 82 83 3d 16 c1 ff 3d 53 0e d9 be 18 a7 0a 3d
       0.06421314 0.12488 -0.4239374 0.03385076
000290 9c b4 58 be 0e fd 08 be d7 a9 db 3e fb c4 ad 3e
       -0.21162647 -0.13377783 0.42903015 0.33939347
0002a0 c8 1c e2 bd f4 71 ff bd 5d 06 6d 3d c0 c4 52 bd
       -0.11040646 -0.12472907 0.057867397 -0.051457167
0002b0 fe 8e cd 3d bc d9 ba be ec 75 03 3e b5 21 0f be
       0.10037039 -0.36494243 0.12837952 -0.13977702
0002c0 99 3a 60 3e ea a1 0a 3d ed 70 2d bd 32 da 2c be
       0.21897353 0.03384582 -0.042344023 -0.1688011
0002d0 51 18 77 3c 02 40 0f 3e fb 77 5d 3d bb a5 86 bc
       0.015081481 0.13989261 0.0540695 -0.016436448
0002e0 7c aa d0 be f6 47 cc be 64 98 26 be c4 3b 52 3d
       -0.4075507 -0.39898652 -0.1626907 0.05132653
0002f0 33 71 8b bc cc 25 7b bd 69 12 32 bd 85 f0 08 3e
       -0.017021751 -0.061315343 -0.04347459 0.13373001
000300 cf b9 43 3e f3 85 3e bd 26 ec 61 bc b9 d1 35 3e
       0.19113849 -0.046514463 -0.013789212 0.17755784
000310 a4 aa ec b9 73 e0 fa 3d 33 ab 39 3e aa 1b c0 3d
       -0.00045140565 0.122498415 0.18131714 0.093802765
000320 31 2a c7 bc f8 a6 67 be 36 6c d4 bc 96 75 98 bb
       -0.02431211 -0.22622287 -0.025930505 -0.004652689
000330 fc 9d 4a 3c 5b 29 cf bd a9 a2 78 bd a7 22 df 3d
       0.012366768 -0.1011531 -0.060702 0.10895281
000340 f0 ae 82 ba 39 26 8e bc cb 21 5a 3d 7c 07 4b 3e
       -0.0009970348 -0.01735221 0.053254884 0.19827074
000350 55 89 b0 3d 54 d7 fa 3d 19 28 ab ba f5 3c 8c 3d
       0.08619944 0.12248102 -0.0013058215 0.06847564
000360 b2 3e 7b 3d 3e ef 0a be 2f 32 23 3d 5f 36 11 be
       0.061339088 -0.13567826 0.03984278 -0.14180897
000370 49 24 14 3e d1 58 5b 3d 31 1a d1 3d 0c 27 07 be
       0.14466967 0.0535515 0.10210074 -0.13198489
000380 7d b2 bd bd c4 ad bc bd 56 21 c1 be a4 6d 13 be
       -0.092625596 -0.09212831 -0.37720746 -0.14397293
000390 37 61 c3 be 58 8a 08 3e b4 0c 83 3e 87 bf 5f 3e
       -0.38160107 0.13334024 0.2559563 0.21850406
0003a0 d3 46 87 3d ec 7c 34 3e c7 78 91 3b ef cd 16 bd
       0.066053055 0.17625779 0.0044394466 -0.036817487
0003b0 5f d5 bb bb 09 4f a8 3c 29 67 d7 bd 94 3b b9 be
       -0.005732223 0.0205455 -0.10517723 -0.36178267
0003c0 95 0e 1d be d7 32 c4 bb 40 11 9b be a5 17 e3 be
       -0.15337594 -0.005987506 -0.30286598 -0.44353977
0003d0 ec 6b 09 be 59 7c 7c bb c6 58 68 3d 95 c2 c3 3c
       -0.13420075 -0.0038526265 0.056725286 0.023896495
0003e0 5d 0c 59 be 9e 9a 91 bd 80 4c b3 3c ea d8 d9 3c
       -0.21196122 -0.07109569 0.021887064 0.02659269
0003f0 af 7f f0 3d 94 0b 84 3d 14 44 2e 3a 6b 5d 41 3e
       0.11743104 0.06447521 0.00066477177 0.18883292

conv2.bias f4 [64]
000000 81 21 ba bd c1 ae 46 bd 5b 9e 4d be d8 12 81 bc
       -0.090884216 -0.048506502 -0.20079939 -0.015756056
000010 16 b5 fc 3c 2a 98 8c bd ea 76 c7 bd b4 04 fa bd
       0.030848067 -0.068649605 -0.09739478 -0.12207928
000020 cd db 04 3b c3 e3 de bd 5e f5 33 be a4 f1 37 bc
       0.0020272613 -0.10883286 -0.17574069 -0.011227045
000030 81 19 ce 3d 44 c2 4e bd 63 0a d9 bc 70 12 b9 3c
       0.10063458 -0.050478235 -0.02649421 0.0225918
000040 9d 45 4d 3e a0 e0 e8 3c 3b d0 b4 3d cf 79 c4 3c
       0.20046087 0.028427422 0.08828779 0.023983864
000050 66 04 a2 3d fe 62 4d 3e a4 77 8a 3d 00 70 b3 bd
       0.07910995 0.20057294 0.06761101 -0.08761597
000060 19 e1 35 bd ba aa 98 3c 7e 77 78 bd 6c 89 59 bd
       -0.044404123 0.018636096 -0.06066083 -0.05310957
000070 18 2f fc 3c e3 46 fa 3c 0d 20 b9 3d 73 01 10 be
       0.030784175 0.03055138 0.09039316 -0.14063053
000080 d8 2d 65 bd b0 22 96 3d f2 6f 92 3d f6 79 d3 bd
       -0.055951923 0.07330835 0.07150258 -0.103259966
000090 21 78 84 bb b4 1b 68 bd 81 9a 14 be 98 c1 5f 3d
       -0.004042641 -0.056667045 -0.14512064 0.054627985
0000a0 5a 4b 1a be 12 ba b9 bd e7 6d ce 3d 1c 2e f6 3d
       -0.15067807 -0.09068693 0.10079556 0.120205134
0000b0 9d 0c 6e 3e a6 0b 8d 3c 34 04 f7 3c 2d 8e dd bd
       0.23246999 0.017217468 0.030153371 -0.108181335
0000c0 96 04 4b 3d 08 41 1e bd e4 54 5b 3e 6c 19 f4 3d
       0.04956492 -0.038636237 0.21419102 0.11918911
0000d0 8f be 57 bd 64 9c 38 3e 5d 75 71 3d 89 43 39 3d
       -0.052671965 0.18028408 0.058949817 0.045230422
0000e0 c4 51 c8 bd f8 ce b2 bd d3 1e f1 bd 96 6b c8 bb
       -0.097812206 -0.087308824 -0.117734574 -0.006116341
0000f0 ee b1 1a 3d 3a f7 58 bd bb 69 13 bd ca 43 85 3d
       0.037767343 -0.05297015 -0.035989504 0.0650707

bn2.weight f4 [64]
000000 96 8f 93 3f 52 bc 8c 3f 61 5b 56 3f ec 75 35 3f
       1.1528194 1.0994971 0.83733183 0.7088306
000010 3c 95 86 3f 92 4b 72 3f 00 8c 65 3f 9a 58 92 3f
       1.0514293 0.9464656 0.8966675 1.1433289
000020 94 ad 4d 3f 75 5f 87 3f 46 a7 7d 3f de d0 2d 3f
       0.80342984 1.0576006 0.99083364 0.6789683
000030 06 0b 71 3f 5e 84 47 3f ce 6c 7b 3f ee cb 84 3f
       0.94157445 0.7793635 0.982129 1.0374734
000040 30 66 7a 3f dc af 72 3f 26 dc 71 3f da 19 87 3f
       0.97812176 0.9479959 0.94476545 1.0554764
000050 76 47 69 3f 77 b8 60 3f fb a9 53 3f 60 f1 6f 3f
       0.91124666 0.8778147 0.82681245 0.93727684
000060 f9 42 6e 3f e6 b4 81 3f 23 88 6c 3f 79 47 62 3f
       0.9307094 1.0133331 0.9239523 0.8839031
000070 8b 12 73 3f d1 65 4c 3f a4 4b 7e 3f 8f 19 72 3f
       0.9495017 0.7984286 0.9933417 0.9457025
000080 46 b1 6a 3f 38 3f 82 3f 93 3c 61 3f 6e 4e 89 3f
       0.9167675 1.0175543 0.87983054 1.072706
000090 f9 15 87 3f 43 21 5f 3f 3d bc 88 3f b5 07 4c 3f
       1.055358 0.8716013 1.0682446 0.7969926
0000a0 5f a2 69 3f 45 c1 80 3f 1b f9 6d 3f f6 94 82 3f
       0.91263384 1.0058981 0.9295823 1.0201709
0000b0 09 9c 75 3f 8a 02 6c 3f 78 8d 99 3f 2d fe 7a 3f
       0.95941216 0.92191374 1.1996298 0.9804409
0000c0 0f 78 88 3f 8a c9 7c 3f 03 8d 6a 3f 57 cf 66 3f
       1.0661639 0.98745024 0.91621417 0.90160125
0000d0 19 cb 68 3f f0 b0 7d 3f ab 83 6b 3f de d7 8f 3f
       0.909349 0.9909811 0.91997784 1.1237752
0000e0 11 47 8b 3f 3f a8 83 3f ea 9b 62 3f cb 80 62 3f
       1.0881063 1.028572 0.88519156 0.8847777
0000f0 da d2 8b 3f 63 f7 89 3f e7 3d 70 3f c7 43 83 3f
       1.0923722 1.0778621 0.93844455 1.0255059

bn2.bias f4 [64]
000000 91 06 de be 1c d0 a2 be 0d e4 2b be 3e 3f aa be
       -0.43364385 -0.317994 -0.16786213 -0.33251375
000010 a7 9a e0 be 2b cd b0 be aa cc e4 be 43 91 9a be
       -0.4386799 -0.3453153 -0.44687396 -0.3018895
000020 da 28 cc be 4a b8 b0 be 2b 31 c2 be 57 23 e8 be
       -0.39874917 -0.345156 -0.37928137 -0.45339462
000030 3e 62 88 be af 05 c1 be 26 01 0f bf 04 cc a8 be
       -0.26637453 -0.3769965 -0.5586113 -0.32968152
000040 43 7f 99 be 04 06 da be 2b 95 f3 be b3 53 b0 be
       -0.29979905 -0.42582715 -0.47574744 -0.34438857
000050 50 cb 95 be b6 8a 5b be 84 28 b0 be 01 f1 2b be
       -0.29256678 -0.21439633 -0.3440591 -0.16791154
000060 40 49 bf be 94 3e ed be c7 9b cb be 47 b0 36 be
       -0.37360573 -0.46336806 -0.39767286 -0.17840682
000070 f5 6e 4c be 32 73 b3 be 2e c0 78 be c5 c7 b7 be
       -0.19964202 -0.35048825 -0.2429206 -0.358946
000080 d3 c7 81 be 59 96 5e be 32 c1 d5 be 77 8b d9 be
       -0.25347766 -0.2173704 -0.4174896 -0.42489216
000090 70 a9 ec be 22 05 cb be bb 84 91 be 2f e4 77 be
       -0.4622302 -0.39652354 -0.28421578 -0.24208139
0000a0 e4 a3 83 be 52 3c b2 be 31 d5 c1 be db 0c d3 be
       -0.25710976 -0.34811646 -0.37857965 -0.41220745
0000b0 92 e7 93 be 1e 2b cc be 0c 8a 99 be 73 ba 48 be
       -0.28887612 -0.39876646 -0.29988134 -0.19602375
0000c0 a5 ab f6 be e3 c4 56 be e3 ea a8 be 98 3a 11 bf
       -0.4817783 -0.20973544 -0.32991704 -0.5673003
0000d0 6b f2 d3 be 41 c5 fa be 2d c1 87 be 28 50 d3 be
       -0.41395888 -0.48978618 -0.2651457 -0.41272092
0000e0 05 fb 97 be d9 31 a3 be 02 27 91 be a8 4c 89 be
       -0.296837 -0.31873968 -0.28350073 -0.26816297
0000f0 f2 9a 95 be 66 44 b7 be e9 4d cd be b3 42 b5 be
       -0.29219776 -0.3579437 -0.40098503 -0.3540245

bn2.running_mean f4 [64]
000000 43 44 04 c0 f1 8b cd bf 00 ef 92 c0 d9 6b 1d 40
       -2.0666664 -1.6058332 -4.591675 2.4597075
000010 8f 32 1b c0 c8 a5 1f c0 ac 19 d8 bf 1e f6 2d c0
       -2.4249609 -2.4944935 -1.6882834 -2.7181468
000020 5a a8 ab bd 93 84 c3 bf b7 41 17 c0 41 50 d1 3e
       -0.0838172 -1.5274833 -2.363386 0.4088154
000030 a2 be 2a c0 e3 d7 4d c0 66 da 37 c0 2c fa 37 c0
       -2.6678853 -3.2163017 -2.872705 -2.8746443
000040 0d 2d 25 c0 d8 f1 52 c0 b2 ed ed bf f5 84 36 c0
       -2.5808747 -3.296011 -1.8588164 -2.851865
000050 38 44 24 c0 b1 77 2a c0 7a 30 16 c0 ec 80 21 c0
       -2.5666637 -2.6635554 -2.3467088 -2.5234938
000060 7e 5c 40 c0 3b 93 0f c0 ab 42 fd bf 6c dd 93 c0
       -3.0056453 -2.2433612 -1.978597 -4.620779
000070 e9 4f 49 c0 db 77 f6 bf 76 df db bf 58 5f 88 c0
       -3.1455023 -1.9255327 -1.717757 -4.2616386
000080 88 f7 2e c0 d9 c3 15 c0 fd 01 d4 bf 18 c4 38 c0
       -2.733858 -2.3400786 -1.6563107 -2.8869686
000090 d0 ee 24 c0 ae 5f 9d bf 60 71 17 c0 e4 92 2f c0
       -2.577076 -1.2294824 -2.3662949 -2.7433405
0000a0 11 04 21 c0 0b c4 30 c0 8c 7c 1a c0 3b 62 3d c0
       -2.5158732 -2.7619655 -2.4138517 -2.9591205
0000b0 f0 20 6e c0 9d 9d 21 c0 cf d0 23 c0 3e c3 08 c0
       -3.7207603 -2.525245 -2.5596197 -2.1369166
0000c0 4f cb 07 c0 d4 cb 27 c0 b6 53 2b c0 8e ff e2 bf
       -2.121784 -2.6218157 -2.6769843 -1.7734239
0000d0 18 e1 27 c0 64 e4 bd bf db 7f 4f c0 15 b2 24 c0
       -2.6231136 -1.4835324 -3.2421787 -2.5733693
0000e0 31 80 17 c0 11 ef 1f c0 6c 76 40 c0 96 ec 35 c0
       -2.3671992 -2.4989665 -3.007228 -2.842565
0000f0 24 74 38 c0 dc 50 38 c0 4c ce 2b c0 00 ef 39 c0
       -2.8820887 -2.8799353 -2.6844664 -2.9052124

bn2.running_var f4 [64]
000000 c6 ed f4 40 5b 82 fc 40 90 e2 72 41 4a 45 29 41
       7.654025 7.8909125 15.180313 10.579416
000010 33 82 33 41 49 90 58 41 59 1c ee 40 5b f9 03 41
       11.219287 13.535226 7.4409604 8.248378
000020 50 91 84 40 d0 3d 27 41 39 20 12 41 0d 40 d6 40
       4.1427383 10.452591 9.132867 6.6953187
000030 30 7b 33 41 56 c9 87 41 cf 56 37 41 ac 2a 17 41
       11.217575 16.973309 11.4586935 9.447918
000040 2e 30 28 41 2a 3a 21 41 cb f4 16 41 e8 66 18 41
       10.511763 10.0767 9.434764 9.525124
000050 b4 2e 47 41 26 4c 24 41 a2 de 26 41 af 97 1e 41
       12.448902 10.268591 10.429354 9.912032
000060 23 69 37 41 3f c4 99 40 9a 4a 23 41 1e a7 88 41
       11.463168 4.805206 10.205713 17.0816
000070 99 8b 13 41 42 ce 09 41 49 ce 40 41 1d 14 73 41
       9.221581 8.612856 12.050363 15.19241
000080 26 ac 3a 41 60 68 20 41 35 c1 02 41 28 84 20 41
       11.667028 10.025482 8.17217 10.032265
000090 a5 e6 15 41 56 c7 02 41 da c1 28 41 1a 47 65 41
       9.36881 8.173666 10.547327 14.329859
0000a0 16 a7 40 41 02 e0 3f 41 f2 a8 ed 40 91 72 4c 41
       12.040792 11.992189 7.426873 12.77797
0000b0 29 f7 61 41 64 46 09 41 d9 4d 07 41 0a 3d 16 41
       14.122842 8.579685 8.456506 9.389902
0000c0 36 b7 02 41 f2 1d d9 40 f9 e3 24 41 d1 04 ac 40
       8.169729 6.7849054 10.305657 5.375588
0000d0 e3 36 16 41 0b 38 03 41 fa a0 83 41 4a b5 2e 41
       9.3884 8.201182 16.453602 10.91926
0000e0 16 7a 16 41 21 b9 1c 41 d1 a3 33 41 18 ac 30 41
       9.404806 9.7951975 11.227494 11.042015
0000f0 19 c8 24 41 3f c2 2f 41 ee 24 4b 41 8f d5 3a 41
       10.298852 10.984923 12.696516 11.677138

conv3.weight f4 [128, 64, 15]
000000 1e 07 a9 3d 33 9d e8 3d 0e b0 c9 3d b4 60 e7 3d
       0.082533106 0.11358108 0.09848033 0.112977415
000010 7a 17 22 3e 7a 6b d8 3d a7 82 53 3e e2 e0 4d 3e
       0.15829268 0.105673745 0.20655309 0.20105317
000020 fb 5f db bb c2 80 93 3d 45 4d bd bd 01 0b a2 bd
       -0.0066947914 0.07202293 -0.092432536 -0.07912255
000030 98 67 4c be 8a 60 1b be 18 95 71 be 68 f6 cf be
       -0.19961393 -0.15173545 -0.23592031 -0.4061768
000040 58 b9 85 bd f9 5f 5a be 0c c1 ec bd 41 60 9a bc
       -0.06529492 -0.21325673 -0.11560258 -0.018844726
000050 fa fe 18 bd 23 24 18 3d e9 51 d0 3d d6 79 32 3e
       -0.03735254 0.037143838 0.10171873 0.17429289
000060 8c 9f f6 3d e7 2a 1c 3e 6b 4b 3c 3e c7 30 29 3e
       0.1204215 0.15250741 0.18388145 0.16522513
000070 dc 61 5f 3e 78 10 08 bd 0a 88 4a 3e 51 c6 5f 3d
       0.21814674 -0.03321883 0.19778457 0.05463249
000080 ca 38 aa bd 05 e8 04 bd 4b 9d 83 bd 41 df 8b bd
       -0.08311613 -0.032447834 -0.06426486 -0.06829692
000090 c2 52 a2 bd 09 cf 5b be 2d 0b 1f be 91 e6 ba be
       -0.07925941 -0.21465696 -0.15531607 -0.36504033
0000a0 53 42 5b be 38 7d 8a be 30 ed 35 be 39 37 07 bd
       -0.2141202 -0.2704866 -0.17766261 -0.03301165
0000b0 90 7f ad bb e2 30 b1 bc e7 1f 31 bc 5b 02 66 3c
       -0.0052947477 -0.021629754 -0.010810829 0.0140386475
0000c0 5b ea 1c 3d 74 d9 2c ba 12 18 bb bc ad 75 9d bc
       0.038309436 -0.00065936823 -0.022838626 -0.019221151
0000d0 51 41 30 3d 3a 0c 0f 3d 39 d9 ff 3c 32 ce 62 3c
       0.04303104 0.03492377 0.03123151 0.013843106
0000e0 c1 5e ee 3d c1 a0 e1 3d 6f ec f0 3d 31 82 bd 3d
       0.116391666 0.110169895 0.11763846 0.09253348
0000f0 72 e3 09 be c2 7f 60 3d 3b 53 28 be 61 64 e9 3c
       -0.1346567 0.05480934 -0.16438 0.028490247
000100 d4 e9 3c be b1 9c 09 3d 49 5b 15 be 2f c6 51 3d
       -0.18448573 0.0335967 -0.14585604 0.051214393
000110 1f 21 61 3c a9 a6 b2 3c 20 52 26 3d c7 35 49 3d
       0.013740807 0.021807985 0.040605664 0.04912355
000120 22 67 4e 3e 64 3a 59 3d df 37 bc 3e 59 fb 4d be
       0.2015653 0.0530342 0.36761376 -0.20115413
000130 ab 5a 16 be c4 8c 32 bd 13 30 45 be 70 36 dd bd
       -0.14683025 -0.043591276 -0.1925662 -0.10801399
000140 da ac 83 be 78 05 50 be 04 08 42 be 03 d5 97 bd
       -0.25717813 -0.20314586 -0.1894837 -0.07413676
000150 e1 cf 27 be a6 30 91 bd 41 d1 6c bc 53 58 61 3d
       -0.16387893 -0.07089357 -0.014454187 0.055015873
000160 c1 a3 5c 3e 44 cd 7f 3e ba 11 16 bb d1 1d cb bd
       0.21546842 0.24980646 -0.002289875 -0.099177964
000170 8c be 6b be fa 63 8c bd 59 29 29 be 3f bf a5 bd
       -0.23021907 -0.068550065 -0.16519679 -0.08093118
000180 ae 66 22 be 79 d3 2f be 33 8e a6 3b d3 04 9e 3d
       -0.15859482 -0.17170514 0.0050828694 0.07715764
000190 8d 29 85 bd 23 60 29 3e dc c1 04 3d 81 e1 62 3d
       -0.06502066 0.1654058 0.03241144 0.05539084
0001a0 ef 76 7e 3c cf 7d 46 bd 08 93 2d be 8e 41 73 be
       0.015531286 -0.048459824 -0.16950619 -0.23755476
0001b0 e5 45 27 be b3 10 2f be 9e 52 26 be ad 23 71 bd
       -0.16335256 -0.17096214 -0.16242453 -0.058871914
0001c0 b0 e6 05 be ba 76 bb bb f8 0c b3 bd 02 1e 69 3e
       -0.13076282 -0.0057209404 -0.08742708 0.22765353
0001d0 cc 08 12 3e d8 8c 38 3e 9f fe 23 be f8 33 38 3b
       0.14261168 0.18022478 -0.16015099 0.0028107148
0001e0 35 98 9f bd 86 65 78 be 2c ae 43 bd dd ce bd bd
       -0.07792703 -0.24257478 -0.047773525 -0.09267972
0001f0 b7 9e 5e 3d e1 bf 0e 3d 07 ec 1d bd 06 c6 02 bc
       0.05435058 0.03485096 -0.03855517 -0.007981783
000200 17 36 5e bd 69 14 ab 3b a1 6f 19 3d 88 a4 52 3b
       -0.054250803 0.005220939 0.037459973 0.0032141525
000210 c3 7f a2 bc ce 18 09 3d bc f3 fb bd 3a 8e 1b 3e
       -0.019836312 0.03347092 -0.12302348 0.15190974
000220 4b 13 15 3e d5 7b 9e 3d f5 35 0d 3e 58 d8 00 3e
       0.14558141 0.07738463 0.13790114 0.12582529
000230 28 c4 67 3e 96 36 a7 3d 71 e9 1a 3e f5 af 4a 3d
       0.22633421 0.08164708 0.15128113 0.049484212
000240 7f 55 3a 3e 33 34 08 3e 84 0f 00 3e 44 77 4f 3e
       0.18196677 0.13301162 0.12505919 0.2026034
000250 9e 80 a2 3e c7 0b 25 3e bb 7b 00 be a9 a8 e8 3c
       0.31738752 0.16117774 -0.125472 0.028400736
000260 50 87 6f bd 59 24 8b 3d 04 44 98 bd 2b fe f5 3d
       -0.058478653 0.06794042 -0.07434848 0.12011369
000270 33 f5 bc bd b9 8d 43 3e 29 65 00 be a3 9c 0e bd
       -0.092264555 0.19097032 -0.1253859 -0.03481735
000280 3f b6 2e be d2 7e e3 bd 65 f1 3d bd a4 0a 20 be
       -0.17061709 -0.111081734 -0.04637279 -0.15629059
000290 f2 bf 33 be 73 83 bf 3d c2 bf a9 3c 1b 2f b4 bd
       -0.1755369 0.09351244 0.02072132 -0.08798047
0002a0 5f 19 0b be 92 3d 53 be d0 e7 37 bd a6 eb 06 be
       -0.13583897 -0.20628956 -0.044898808 -0.1317583
0002b0 47 4d f7 bc a4 d0 1b bc 9d 4f ba 3d 21 2d a6 3d
       -0.030188216 -0.009510193 0.09097216 0.081140764
0002c0 cb c5 0c 3e a5 6b 3f 3e ed 9e 21 3e 84 6d 60 3e
       0.13747327 0.18693407 0.15783282 0.21916777
0002d0 58 09 91 3d ed 0a 48 bd 11 23 dc 3c 64 54 12 be
       0.0708186 -0.048838545 0.02687219 -0.14290005
0002e0 94 a5 42 3d cd 27 af bd 1b 01 2e 3e 64 d4 5e bc
       0.04752119 -0.08552513 0.16992609 -0.013600443
0002f0 83 b7 15 3e 06 dc df ba 38 82 9b 3e 82 32 e8 3d
       0.14620785 -0.0017079122 0.30372787 0.113377586
000300 f1 08 61 3e 8e a4 ff ba 42 bb 41 3e be 10 0e 3d
       0.21976067 -0.0019503997 0.1891909 0.034683935
000310 af 1f 80 3e 54 ef 7a 3e d4 5c 0b 3e 12 e2 95 3d
       0.25024173 0.24505359 0.1360963 0.0731851
000320 be b3 4b 3d 37 98 a3 bd cb c4 d3 bd f1 ff f6 bb
       0.049731962 -0.07988017 -0.1034027 -0.007537835
000330 a0 e6 23 3d 1f 6a 97 bb 07 ec 9a 3d d4 48 34 3d
       0.040014863 -0.004620805 0.0756455 0.044014767
000340 c3 65 3e 3d cc d6 52 3d 4e 3a 5b be 44 8d 45 bd
       0.046483766 0.051474378 -0.2140896 -0.048230425
000350 44 55 7f bd a7 05 12 be 01 2e 4d bb bd 9f d5 bd
       -0.062337175 -0.14259969 -0.0031307938 -0.10430858
000360 4d 70 ae bd 82 9f 62 3d 3b 4f cb 3d 0a a2 e8 bb
       -0.085175134 0.0553279 0.099272214 -0.0070993947
000370 d9 e1 06 3e d9 a7 6f 3e 20 45 84 3e 9d 51 aa 3e
       0.13172092 0.23403873 0.25833988 0.3326539
000380 d9 5c 38 3e 50 b5 ff bc ce 03 1f 3e cf 3a 47 bd
       0.18004169 -0.031214386 0.15528795 -0.04864007
000390 13 20 35 bc 3c c6 78 bc 4c 5e 80 3d 33 85 74 bd
       -0.01105501 -0.0151839815 0.06267986 -0.05969734
0003a0 d5 fe 24 3e 6c 89 35 3d e4 20 19 3e 98 49 b6 bd
       0.16112836 0.04432051 0.14953953 -0.08900756
0003b0 73 38 b1 3d 51 c6 66 be a7 03 5d 3c ac 3d 9b be
       0.08653345 -0.22536589 0.01348964 -0.3032049
0003c0 e2 f8 c2 bd 13 e4 1e 3d fb 98 6a be 74 a9 ef bc
       -0.09520127 0.038791727 -0.2290992 -0.029255606
0003d0 f8 30 a0 bd c9 11 2d 3e c3 5b 9b bd b2 22 59 3d
       -0.0782184 0.16901316 -0.075858615 0.053011604
0003e0 c2 f6 5f be 37 95 4f 3e 0b 2d f3 3d a5 73 aa 3d
       -0.21871474 0.20271765 0.11873826 0.08322839
0003f0 bd 2f 59 bd fe f3 e8 3d 23 8f 8b bd 4a 09 2a 3e
       -0.053024042 0.11374663 -0.068144105 0.16605106

conv3.bias f4 [128]
000000 bb 42 ab 3d 19 b0 a5 bc b7 0a 5e bd ea 95 11 bd
       0.08362337 -0.020225571 -0.054209437 -0.03554336
000010 9b 97 df 3d cc d7 d5 bc 82 45 a1 bd 80 cf 2c be
       0.10917588 -0.026103877 -0.07874586 -0.1687603
000020 66 88 3d 3d 1d da f3 bd ec 40 b2 3c 0b d9 a2 3c
       0.046272658 -0.11906836 0.021759473 0.019878885
000030 07 0c 07 3c 61 3b a7 bd 6c 3a ba 3c 1c 8e cb 3d
       0.008242614 -0.081656225 0.022732936 0.099392146
000040 4d 7e 43 bd 8e b6 26 3d 96 9e 88 3d e2 ef dc 3c
       -0.04772787 0.04070144 0.06670873 0.026969854
000050 f0 da 49 3d 58 b6 99 3d 74 5d b2 3d d8 a9 f7 3b
       0.04928106 0.075054824 0.08709231 0.0075580887
000060 16 54 e3 bc 93 06 fc 3d 11 03 cc bd c1 e6 62 bc
       -0.027750056 0.123059414 -0.09961522 -0.013848961
000070 ee e5 e3 3b 20 84 09 bd 4e 39 23 3c 4f bc 14 3b
       0.0069549 -0.03357327 0.009962393 0.0022695248
000080 81 8e db bd 81 9c a8 3d cf c2 98 3c 7c c4 f3 3d
       -0.1072054 0.08232976 0.01864758 0.11902711
000090 bf e5 e0 3c 5e 95 af bc 04 e6 f6 3b 3b c9 17 bc
       0.027453301 -0.021433529 0.007534744 -0.009264286
0000a0 79 e6 4d 3d 57 aa e2 3c 46 40 09 3e 5c 23 c7 ba
       0.050268624 0.027669115 0.13403425 -0.0015193033
0000b0 b0 5e c2 3c 85 0c c3 3c b9 41 bb 3d 83 b9 d3 3c
       0.023726791 0.02380968 0.09143395 0.025845295
0000c0 62 7b 8a bd 05 87 d5 3c 56 9a e7 3d 6c 5d 92 3d
       -0.06761815 0.026065359 0.11308734 0.07146725
0000d0 9b 21 26 bd 31 fb ee 3c cd cf bb bc d1 f1 05 bd
       -0.040559392 0.029172512 -0.022926236 -0.032701317
0000e0 a6 63 cb bd 64 39 01 bc 0c 91 1d 3d 28 03 23 bc
       -0.09931116 -0.007887218 0.038468406 -0.009949483
0000f0 a1 22 b3 3c c3 b0 aa bc 05 01 95 bc a2 71 8a bc
       0.021867098 -0.02083624 -0.018188963 -0.016899887
000100 f3 d6 30 bd fc 4e 6d 3d af d6 31 bd 7a fd 20 3d
       -0.04317374 0.057936653 -0.04341763 0.039304234
000110 fe 98 d6 3b 0f 97 ed 3c 58 05 d3 bc a5 90 e9 bd
       0.006549 0.029002694 -0.025759384 -0.11404542
000120 1d 2f 9c bd 98 36 39 bb fa 7b e4 bd 16 12 82 3d
       -0.07626174 -0.00282613 -0.11156459 0.06351106
000130 01 0d 31 bc c4 f2 b1 bc bb 08 73 3c 0a d3 d8 bb
       -0.010806323 -0.021722205 0.0148336245 -0.0066169547
000140 0c 5f 63 3c 3c a9 0e 3d 56 46 ee bd 90 75 c6 bd
       0.013877641 0.034829363 -0.11634509 -0.09690392
000150 93 b7 e5 bc a3 64 d2 3d 94 71 cc 3d 66 2b 31 3d
       -0.028041637 0.10273101 0.09982601 0.04325428
000160 47 37 a2 bb 2d cc 01 bd 48 a5 de 3d 29 d8 95 bc
       -0.004950437 -0.031688858 0.10871369 -0.01829155
000170 e2 6d 9c bd 87 b2 67 3c 9c 61 79 3d 3d b7 9a bd
       -0.07638146 0.014141685 0.060884103 -0.07554481
000180 c1 ea 31 bc 2f 66 ff bc 4c f6 2b be 5c ea 32 be
       -0.010859192 -0.031176655 -0.16793174 -0.17472214
000190 1d 7c a0 3d be 99 bf bb a4 06 56 bc c6 08 c2 3c
       0.07836173 -0.005847185 -0.013063107 0.023685824
0001a0 b4 04 f9 3d cc bb ac bd 7d 20 03 be d4 6b 58 3d
       0.121591 -0.08434257 -0.12805362 0.052837208
0001b0 14 36 30 bd 05 d0 b5 bc 60 80 9f bd 16 00 9d bb
       -0.043020323 -0.022193918 -0.077881575 -0.00479127
0001c0 2c b8 b4 bd a4 90 22 bb 15 84 91 3c 5b 07 ea bc
       -0.088241905 -0.002480545 0.017763177 -0.02856796
0001d0 aa 22 b4 bd 7c ff 93 bd f3 45 66 3d 43 8e cc 3c
       -0.08795674 -0.07226464 0.056219053 0.02497018
0001e0 1a e5 76 3d ef 0a 1d 3d 2f 8d fc 3a c3 5a 38 bd
       0.060277082 0.038340505 0.001926815 -0.045008432
0001f0 1a 17 4b 3d d5 74 47 39 ed 28 9a bb d2 48 b7 bc
       0.04958258 0.00019021642 -0.0047045858 -0.02237359

bn3.weight f4 [128]
000000 b6 83 97 3f 74 4b 86 3f e1 c2 8e 3f cc a8 8f 3f
       1.183707 1.0491776 1.1153222 1.1223388
000010 c3 97 8f 3f 22 57 8e 3f 2f 87 8d 3f 59 de 95 3f
       1.1218189 1.1120341 1.105688 1.170848
000020 ca 92 85 3f a3 86 8d 3f 74 e1 86 3f 18 ef 93 3f
       1.0435421 1.1056713 1.0537553 1.1557341
000030 8a 4a 98 3f af f7 93 3f bf b3 8f 3f fe e4 8b 3f
       1.1897748 1.1559962 1.1226729 1.0929258
000040 d2 b5 83 3f bf b7 81 3f 3c 97 9a 3f a5 ba 7b 3f
       1.0289862 1.01342 1.2077403 0.9833167
000050 45 fe 85 3f 93 7d 8d 3f 15 9e 81 3f 75 c2 8a 3f
       1.0468222 1.1053947 1.0126368 1.0840594
000060 1c a0 91 3f 35 66 9e 3f 83 23 8d 3f 5b f0 9c 3f
       1.1376987 1.2374941 1.1026462 1.2260851
000070 2d 92 7a 3f 3c 68 88 3f ff c1 9e 3f ca 6e 8f 3f
       0.97879297 1.065681 1.2402953 1.1205685
000080 b5 a2 8b 3f 46 ff 89 3f 9e 53 96 3f 5a 51 9a 3f
       1.0909029 1.0781028 1.1744268 1.2056077
000090 8a aa 8a 3f 4e 25 84 3f 05 e2 8f 3f 46 fa 9a 3f
       1.0833294 1.0323884 1.1240851 1.2107627
0000a0 21 2c 91 3f 9e 3b 89 3f 3b bc 95 3f ea d7 81 3f
       1.1341592 1.0721319 1.1698068 1.0144017
0000b0 c7 f1 89 3f 26 19 89 3f 2e 28 9b 3f e6 11 9d 3f
       1.077691 1.07108 1.2121637 1.2271087
0000c0 c6 2d 8e 3f 17 17 8b 3f 60 c7 8f 3f 8a 3f 91 3f
       1.1107719 1.0866421 1.123272 1.1347516
0000d0 49 02 8e 3f 76 48 a1 3f 5e 62 9d 3f 72 79 86 3f
       1.1094447 1.2600238 1.2295644 1.0505812
0000e0 89 7e 8c 3f 1b cf 86 3f 8a cc 99 3f f6 e1 97 3f
       1.0976115 1.0531954 1.2015545 1.1865833
0000f0 2e 79 95 3f d9 14 90 3f 24 f1 91 3f 8c 0a 8b 3f
       1.1677606 1.1256362 1.1401715 1.0862594
000100 0f f3 84 3f 62 15 8b 3f fe d5 91 3f 62 95 8e 3f
       1.0386676 1.08659 1.139343 1.1139338
000110 6d e5 86 3f d9 90 8f 3f d1 ba 94 3f 26 f2 8d 3f
       1.0538765 1.1216079 1.1619512 1.1089523
000120 ee a4 8e 3f 3c a3 8e 3f fd 74 96 3f dd b9 9d 3f
       1.1144083 1.1143565 1.1754452 1.2322346
000130 c5 4f 8d 3f 40 b5 99 3f 6d ad 94 3f 48 47 8c 3f
       1.1039969 1.2008438 1.1615425 1.0959253
000140 16 c2 8f 3f 5d 7b 90 3f 36 fd a8 3f ae 77 91 3f
       1.1231105 1.1287647 1.3202274 1.1364648
000150 fc dd 89 3f 43 d5 9a 3f f4 ec 8b 3f 08 0f 7c 3f
       1.0770869 1.2096332 1.0931687 0.98460436
000160 6e cb 88 3f eb 4f 8e 3f bf 54 88 3f bb c1 9e 3f
       1.0687082 1.1118139 1.0650862 1.2402872
000170 7e 04 8c 3f 76 4e 89 3f fe 77 86 3f f0 86 8e 3f
       1.0938871 1.0727069 1.0505369 1.113493
000180 12 3a 86 3f 08 bf 91 3f b1 9f 9d 3f 42 8a 8b 3f
       1.0486472 1.1386423 1.2314359 1.0901568
000190 cf 26 96 3f 24 2f 7d 3f fb 2c 82 3f 85 54 a3 3f
       1.1730593 0.98900056 1.0169977 1.2760168
0001a0 f1 f2 89 3f f8 2c 8c 3f d0 cc 90 3f 1a b6 9d 3f
       1.0777265 1.0951223 1.1312504 1.2321198
0001b0 70 bb 92 3f d7 26 97 3f 90 72 95 3f 77 9e 88 3f
       1.1463451 1.1808728 1.1675587 1.067336
0001c0 a7 64 9a 3f 08 10 8a 3f 66 7c 91 3f 67 91 92 3f
       1.2061967 1.0786142 1.1366088 1.1450623
0001d0 54 43 8a 3f f0 41 91 3f c4 30 83 3f 78 37 a4 3f
       1.0801797 1.1348248 1.0249257 1.2829428
0001e0 12 ab 8e 3f b7 53 8a 3f e3 24 8d 3f b5 c4 7e 3f
       1.1145957 1.0806798 1.1026882 0.995189
0001f0 ec 7d 8e 3f f4 4b 87 3f 5d 74 92 3f e2 af 8a 3f
       1.1132178 1.0570054 1.1441761 1.0834925

bn3.bias f4 [128]
000000 4a 18 09 be 39 f1 60 be bc 7f 83 bb c3 be 98 be
       -0.13388172 -0.21967019 -0.00401303 -0.2983304
000010 9a 76 1e be 96 a2 68 be 8f cb 16 be 60 c2 6e be
       -0.1547493 -0.22718272 -0.14726089 -0.23316336
000020 b8 1c 3d be ad a6 76 be ca 90 80 be 27 2a 96 be
       -0.18467987 -0.2408702 -0.25110465 -0.29329035
000030 a2 c1 5f be 60 68 5e be 86 2c 62 be 63 13 71 be
       -0.21851209 -0.21719503 -0.22087297 -0.23542552
000040 3c 6f ae be 61 68 30 be 63 e5 8c be 83 8c 91 be
       -0.3406924 -0.17227317 -0.27518758 -0.28427514
000050 59 ec 12 be cd 6f 8a be d0 39 af be 37 ca 71 be
       -0.14347972 -0.27038422 -0.34223795 -0.23612295
000060 ea ba 34 be 1b 4d 6a be 20 c4 93 be 3a cd 6a be
       -0.17649427 -0.22880976 -0.2886057 -0.2292985
000070 d5 ea 91 be 07 77 7a be 23 a6 77 be e5 da 89 be
       -0.28499475 -0.24459468 -0.2418447 -0.26924816
000080 81 d4 5f be 98 74 42 be 07 07 54 be b1 a5 52 be
       -0.21858408 -0.1898979 -0.20705806 -0.20571019
000090 75 e9 af be a5 f9 64 be 40 49 8f be 0a f1 5e be
       -0.343578 -0.22360857 -0.27985573 -0.21771637
0000a0 fe 6f 34 be b7 82 82 be 4d be 4e be 44 db 30 be
       -0.17620847 -0.25490353 -0.20189781 -0.17271143
0000b0 97 c7 74 be 69 8e 4a be b8 3b 10 be c3 a0 31 be
       -0.23904262 -0.19780888 -0.14085281 -0.17346482
0000c0 ab e0 6d be d2 cf 84 be 19 12 90 be b5 ca 90 be
       -0.23230235 -0.25939804 -0.28138807 -0.28279653
0000d0 64 90 72 be bf e2 1a be 97 ae 54 be 92 ee 95 be
       -0.23687893 -0.1512556 -0.20769726 -0.29283577
0000e0 de 2d b9 be cb f0 9e be d3 8f 44 be b4 2c 2e be
       -0.36167806 -0.31043085 -0.1919549 -0.1700924
0000f0 ae a4 84 be 2a 8b 97 be 8c f2 5a be 86 fa 80 be
       -0.2590689 -0.2959836 -0.21381587 -0.25191134
000100 9a 97 50 be dc f1 b3 be ef f6 72 be d9 c4 80 be
       -0.20370331 -0.35145462 -0.2372701 -0.25150183
000110 08 77 8f bd bc 5e 8a be cf de 30 be f6 ef 2c be
       -0.07005125 -0.27025402 -0.17272495 -0.16888413
000120 bb b6 91 be b2 bb 49 be 63 7e a1 be 82 2d 2c be
       -0.28459725 -0.19700506 -0.31541738 -0.16814235
000130 4c 84 83 be b0 eb 0e be 86 ac 38 be 32 c1 a3 be
       -0.25686872 -0.13957095 -0.18034562 -0.31983334
000140 fb 55 7c be 25 f1 54 be 92 fd 2d be 21 60 97 be
       -0.24642174 -0.20795114 -0.1699126 -0.29565528
000150 cc fc 6d be 0d a7 37 be 82 35 24 be 0b 44 93 be
       -0.23240966 -0.17934819 -0.16036037 -0.2876285
000160 01 06 72 be 41 94 91 be a6 98 4e be 66 4c 5e be
       -0.23635103 -0.2843342 -0.20175418 -0.21708831
000170 12 0b 78 bc ca b3 96 be 61 42 44 bd d5 a8 8a be
       -0.015139358 -0.29434043 -0.047914866 -0.27081934
000180 31 59 8e be 53 16 9e be 71 17 3e be 9d 0f 5a bd
       -0.27802423 -0.30876407 -0.1856363 -0.053237546
000190 40 2e 73 be fd 0d 52 be 94 0b 21 be 29 27 2b be
       -0.23748112 -0.20513149 -0.15727073 -0.16714157
0001a0 73 ff 42 be f0 c8 52 be 36 5c 80 be fd da 83 be
       -0.19042759 -0.20584464 -0.2507035 -0.25753012
0001b0 e4 a7 64 be 4f 58 5b be 8b 1c 7a be d2 21 16 be
       -0.2232967 -0.21420406 -0.24424951 -0.14661339
0001c0 2e 81 5e be 0d d3 8a be 4f 7f 86 be 59 86 8f be
       -0.21728966 -0.27114144 -0.26269004 -0.28032187
0001d0 75 ed 88 be cd fa 60 be 05 e9 42 be 9d 55 2b be
       -0.26743665 -0.21970673 -0.19034202 -0.16731878
0001e0 93 4c af be 93 47 89 be 06 19 85 be e5 d9 86 be
       -0.3423811 -0.2681242 -0.25995654 -0.26338115
0001f0 b1 a4 80 be 49 90 88 be fb 61 3a be 25 3f 82 bd
       -0.2512565 -0.2667258 -0.18201439 -0.063597

bn3.running_mean f4 [128]
000000 2c be 94 be 36 2b 98 bf c7 e5 97 3f f1 81 7f bf
       -0.2905134 -1.1888187 1.1866997 -0.9980765
000010 c4 31 19 3f 14 ba d3 bf 98 4e c8 3e be b1 ba be
       0.5984156 -1.6541162 0.39122462 -0.36463732
000020 dd 7c e2 be 0f 13 b2 bf 68 3c 8b bf 08 0c 7e bf
       -0.44235888 -1.3912066 -1.087781 -0.9923711
000030 5f 7a 93 be c4 b9 c6 3e ba 5b cf bf 07 c3 c4 bf
       -0.288043 0.38813603 -1.6199868 -1.5372018
000040 20 b4 24 bf ee c7 73 bf 76 cc d5 be 80 96 ad bf
       -0.6433735 -0.95226943 -0.41757554 -1.3561554
000050 a6 e0 24 40 e0 43 ef bf de 56 15 c0 f8 77 04 bf
       2.5762115 -1.8692589 -2.333427 -0.5174556
000060 81 d9 53 bf 81 dc d1 3d 46 30 9d bf 0a 47 2a 3e
       -0.8275376 0.10247136 -1.2280357 0.16628662
000070 69 5d 17 be 68 36 d8 bf 16 0a 12 c0 fa fc d7 40
       -0.14781727 -1.6891603 -2.2818656 6.749631
000080 95 e8 fa bf 2f cf 24 c0 24 67 ec bf ad 52 95 bf
       -1.9602228 -2.5751455 -1.8468976 -1.1665856
000090 2e 0f 44 3f 0e 29 f9 3d 66 8f 35 3e e9 03 43 bf
       0.7658566 0.12166034 0.17730483 -0.7617784
0000a0 c8 12 13 bf d4 a6 bd bf 13 dc ee be 00 39 41 40
       -0.5745053 -1.4816537 -0.46652278 3.019104
0000b0 b5 d5 fe 3f 22 ac 1f 40 e2 ab 95 3e b4 9c 7e bf
       1.9908968 2.4948812 0.292327 -0.9945786
0000c0 e9 66 b8 bf 5e 10 85 40 85 c2 94 3e 37 b8 d8 bf
       -1.4406406 4.158248 0.29054657 -1.6931218
0000d0 2e e1 50 bf b6 c6 0e c0 5a 3b 08 bf ed 74 92 3f
       -0.81593597 -2.2308784 -0.53215563 1.1441933
0000e0 fd 17 a2 3f f8 98 9c 3f cf 07 aa bf 32 08 30 3e
       1.2663571 1.2234182 -1.3283633 0.17190626
0000f0 2e cb a4 3d ab 47 1d c0 30 9a 1c 3f 3e 30 93 bf
       0.08046566 -2.4574993 0.6117277 -1.1499097
000100 54 b7 98 bf dc 37 f6 3e 03 0e 16 c0 71 1b 7b 3d
       -1.1930947 0.48089492 -2.3446052 0.061305467
000110 44 04 3f 40 ce 33 16 bf 73 57 38 3e 1e 33 0a 40
       2.9846354 -0.586728 0.18002109 2.15937
000120 19 5d 14 c0 38 68 e2 bf 6d e4 98 bf 5f 44 f0 be
       -2.3181822 -1.7688055 -1.194471 -0.46927163
000130 9c 4a 6b bf 08 d3 db bf 92 08 3d 3e 8b 30 ab bf
       -0.9191072 -1.7173777 0.184603 -1.3374189
000140 72 65 b7 bf 7a 53 2a bf ea a3 20 3f ca b9 8d be
       -1.4327834 -0.66533625 0.62750113 -0.27680808
000150 98 32 c6 bf e0 87 3f bf fd e8 2a 40 7b 9d b9 bd
       -1.548419 -0.74816704 2.6704705 -0.0906324
000160 76 08 b4 bf 26 ab 18 bf 16 21 36 c0 a2 fa 0a bf
       -1.4065082 -0.5963615 -2.8457694 -0.54288685
000170 40 0e be 3f da 6e c1 bf bc 32 5d 40 1e 65 8b 40
       1.4848099 -1.5111954 3.4562216 4.3560934
000180 5a 4f f5 bf 12 c4 01 bf 19 3c 4f bf e6 2a cc 3f
       -1.9164841 -0.50689805 -0.80951077 1.5950592
000190 9f b5 9e be 54 a6 b0 3f e6 52 90 3f 1a 73 0e be
       -0.3099794 1.3800759 1.1275299 -0.13911095
0001a0 ef 8f 7d c0 14 09 e3 bd 21 b6 dc bf 6d 38 d2 bf
       -3.96191 -0.11085716 -1.7243081 -1.642347
0001b0 28 6a cb bf 4a 60 09 bf df d2 e0 be 60 ef c8 3e
       -1.5891771 -0.5366255 -0.43910882 0.3924513
0001c0 60 00 dd 3e 5e 32 63 c0 ce 37 3a bf 00 20 dc 3f
       0.4316435 -3.5499492 -0.727414 1.7197266
0001d0 a7 6b 00 c0 d1 e8 1a c0 cb 27 1a bf 8c 04 28 bf
       -2.0065706 -2.42046 -0.6021697 -0.6563194
0001e0 0e 58 78 bf 07 a2 ce bf ea b4 9a bf ed 65 92 be
       -0.9700936 -1.6143197 -1.208646 -0.28593388
0001f0 e2 d5 7c bf 26 d4 29 c0 a7 19 56 bf 59 71 10 40
       -0.9876386 -2.6535735 -0.8363289 2.2569182
